…
2026-04-21 11:07:24,064 - INFO -   submodule decoder                1070144 params
2026-04-21 11:07:24,064 - INFO -   submodule global_head             211860 params
2026-04-21 11:07:24,064 - INFO -   submodule center_head             211860 params
2026-04-21 11:07:24,064 - INFO -   submodule projections             896800 params
2026-04-21 11:07:24,065 - INFO - ----- model structure (nn.Module repr,不随输入变化) -----
2026-04-21 11:07:24,065 - INFO - MultimodalClassifier(
2026-04-21 11:07:24,065 - INFO -   (rgb_student): LightweightRgbEncoder(
2026-04-21 11:07:24,065 - INFO -     (stem): Sequential(
2026-04-21 11:07:24,065 - INFO -       (0): Conv2d(3, 64, kernel_size=(3, 3), stride=(1, 1), padding=(1, 1), bias=False)
2026-04-21 11:07:24,065 - INFO -       (1): BatchNorm2d(64, eps=1e-05, momentum=0.1, affine=True, track_running_stats=True)
2026-04-21 11:07:24,065 - INFO -       (2): ReLU(inplace=True)
2026-04-21 11:07:24,065 - INFO -       (3): Conv2d(64, 128, kernel_size=(3, 3), stride=(1, 1), padding=(1, 1), bias=False)
2026-04-21 11:07:24,065 - INFO -       (4): BatchNorm2d(128, eps=1e-05, momentum=0.1, affine=True, track_running_stats=True)
2026-04-21 11:07:24,065 - INFO -       (5): ReLU(inplace=True)
2026-04-21 11:07:24,065 - INFO -     )
2026-04-21 11:07:24,065 - INFO -     (pool): AdaptiveAvgPool2d(output_size=1)
2026-04-21 11:07:24,065 - INFO -     (fc): Linear(in_features=128, out_features=320, bias=True)
2026-04-21 11:07:24,065 - INFO -   )
2026-04-21 11:07:24,065 - INFO -   (hsi_encoder): HSICenterSpectralEncoder(
2026-04-21 11:07:24,065 - INFO -     (stem): Sequential(
2026-04-21 11:07:24,065 - INFO -       (0): Conv1d(1, 48, kernel_size=(3,), stride=(1,), padding=(1,), bias=False)
2026-04-21 11:07:24,065 - INFO -       (1): BatchNorm1d(48, eps=1e-05, momentum=0.1, affine=True, track_running_stats=True)
2026-04-21 11:07:24,065 - INFO -       (2): ReLU(inplace=True)
2026-04-21 11:07:24,065 - INFO -       (3): Conv1d(48, 96, kernel_size=(3,), stride=(1,), padding=(1,), bias=False)
2026-04-21 11:07:24,065 - INFO -       (4): BatchNorm1d(96, eps=1e-05, momentum=0.1, affine=True, track_running_stats=True)
2026-04-21 11:07:24,065 - INFO -       (5): ReLU(inplace=True)
2026-04-21 11:07:24,065 - INFO -       (6): Conv1d(96, 96, kernel_size=(3,), stride=(1,), padding=(1,), bias=False)
2026-04-21 11:07:24,065 - INFO -       (7): BatchNorm1d(96, eps=1e-05, momentum=0.1, affine=True, track_running_stats=True)
2026-04-21 11:07:24,065 - INFO -       (8): ReLU(inplace=True)
2026-04-21 11:07:24,065 - INFO -     )
2026-04-21 11:07:24,065 - INFO -     (res_blocks): Sequential(
2026-04-21 11:07:24,065 - INFO -       (0): _HSISpectralResidualBlock(
2026-04-21 11:07:24,065 - INFO -         (conv1): Conv1d(96, 96, kernel_size=(3,), stride=(1,), padding=(1,), bias=False)
2026-04-21 11:07:24,065 - INFO -         (bn1): BatchNorm1d(96, eps=1e-05, momentum=0.1, affine=True, track_running_stats=True)
2026-04-21 11:07:24,065 - INFO -         (conv2): Conv1d(96, 96, kernel_size=(3,), stride=(1,), padding=(1,), bias=False)
2026-04-21 11:07:24,065 - INFO -         (bn2): BatchNorm1d(96, eps=1e-05, momentum=0.1, affine=True, track_running_stats=True)
2026-04-21 11:07:24,065 - INFO -         (relu): ReLU(inplace=True)
2026-04-21 11:07:24,065 - INFO -       )
2026-04-21 11:07:24,065 - INFO -       (1): _HSISpectralResidualBlock(
2026-04-21 11:07:24,065 - INFO -         (conv1): Conv1d(96, 96, kernel_size=(3,), stride=(1,), padding=(1,), bias=False)
2026-04-21 11:07:24,065 - INFO -         (bn1): BatchNorm1d(96, eps=1e-05, momentum=0.1, affine=True, track_running_stats=True)
2026-04-21 11:07:24,065 - INFO -         (conv2): Conv1d(96, 96, kernel_size=(3,), stride=(1,), padding=(1,), bias=False)
2026-04-21 11:07:24,065 - INFO -         (bn2): BatchNorm1d(96, eps=1e-05, momentum=0.1, affine=True, track_running_stats=True)
2026-04-21 11:07:24,065 - INFO -         (relu): ReLU(inplace=True)
2026-04-21 11:07:24,065 - INFO -       )
2026-04-21 11:07:24,065 - INFO -       (2): _HSISpectralResidualBlock(
2026-04-21 11:07:24,065 - INFO -         (conv1): Conv1d(96, 96, kernel_size=(3,), stride=(1,), padding=(1,), bias=False)
2026-04-21 11:07:24,065 - INFO -         (bn1): BatchNorm1d(96, eps=1e-05, momentum=0.1, affine=True, track_running_stats=True)
2026-04-21 11:07:24,065 - INFO -         (conv2): Conv1d(96, 96, kernel_size=(3,), stride=(1,), padding=(1,), bias=False)
2026-04-21 11:07:24,065 - INFO -         (bn2): BatchNorm1d(96, eps=1e-05, momentum=0.1, affine=True, track_running_stats=True)
2026-04-21 11:07:24,065 - INFO -         (relu): ReLU(inplace=True)
2026-04-21 11:07:24,065 - INFO -       )
2026-04-21 11:07:24,065 - INFO -       (3): _HSISpectralResidualBlock(
2026-04-21 11:07:24,065 - INFO -         (conv1): Conv1d(96, 96, kernel_size=(3,), stride=(1,), padding=(1,), bias=False)
2026-04-21 11:07:24,065 - INFO -         (bn1): BatchNorm1d(96, eps=1e-05, momentum=0.1, affine=True, track_running_stats=True)
2026-04-21 11:07:24,065 - INFO -         (conv2): Conv1d(96, 96, kernel_size=(3,), stride=(1,), padding=(1,), bias=False)
2026-04-21 11:07:24,065 - INFO -         (bn2): BatchNorm1d(96, eps=1e-05, momentum=0.1, affine=True, track_running_stats=True)
2026-04-21 11:07:24,065 - INFO -         (relu): ReLU(inplace=True)
2026-04-21 11:07:24,065 - INFO -       )
2026-04-21 11:07:24,065 - INFO -       (4): _HSISpectralResidualBlock(
2026-04-21 11:07:24,065 - INFO -         (conv1): Conv1d(96, 96, kernel_size=(3,), stride=(1,), padding=(1,), bias=False)
2026-04-21 11:07:24,065 - INFO -         (bn1): BatchNorm1d(96, eps=1e-05, momentum=0.1, affine=True, track_running_stats=True)
2026-04-21 11:07:24,065 - INFO -         (conv2): Conv1d(96, 96, kernel_size=(3,), stride=(1,), padding=(1,), bias=False)
2026-04-21 11:07:24,065 - INFO -         (bn2): BatchNorm1d(96, eps=1e-05, momentum=0.1, affine=True, track_running_stats=True)
2026-04-21 11:07:24,065 - INFO -         (relu): ReLU(inplace=True)
2026-04-21 11:07:24,065 - INFO -       )
2026-04-21 11:07:24,065 - INFO -     )
2026-04-21 11:07:24,065 - INFO -     (pool): AdaptiveAvgPool1d(output_size=1)
2026-04-21 11:07:24,065 - INFO -     (se): Sequential(
2026-04-21 11:07:24,065 - INFO -       (0): Linear(in_features=96, out_features=8, bias=False)
2026-04-21 11:07:24,065 - INFO -       (1): ReLU(inplace=True)
2026-04-21 11:07:24,065 - INFO -       (2): Linear(in_features=8, out_features=96, bias=False)
2026-04-21 11:07:24,065 - INFO -       (3): Sigmoid()
2026-04-21 11:07:24,065 - INFO -     )
2026-04-21 11:07:24,065 - INFO -     (proj): Linear(in_features=96, out_features=320, bias=True)
2026-04-21 11:07:24,065 - INFO -   )
2026-04-21 11:07:24,065 - INFO -   (lidar_encoder): LidarMorphEncoder(
2026-04-21 11:07:24,065 - INFO -     (stem): Sequential(
2026-04-21 11:07:24,065 - INFO -       (0): Conv2d(1, 48, kernel_size=(3, 3), stride=(1, 1), padding=(1, 1), bias=False)
2026-04-21 11:07:24,065 - INFO -       (1): BatchNorm2d(48, eps=1e-05, momentum=0.1, affine=True, track_running_stats=True)
2026-04-21 11:07:24,065 - INFO -       (2): ReLU(inplace=True)
2026-04-21 11:07:24,065 - INFO -       (3): Conv2d(48, 48, kernel_size=(3, 3), stride=(1, 1), padding=(1, 1), bias=False)
2026-04-21 11:07:24,065 - INFO -       (4): BatchNorm2d(48, eps=1e-05, momentum=0.1, affine=True, track_running_stats=True)
2026-04-21 11:07:24,065 - INFO -       (5): ReLU(inplace=True)
2026-04-21 11:07:24,065 - INFO -       (6): Conv2d(48, 96, kernel_size=(3, 3), stride=(1, 1), padding=(1, 1), bias=False)
2026-04-21 11:07:24,065 - INFO -       (7): BatchNorm2d(96, eps=1e-05, momentum=0.1, affine=True, track_running_stats=True)
2026-04-21 11:07:24,065 - INFO -       (8): ReLU(inplace=True)
2026-04-21 11:07:24,065 - INFO -     )
2026-04-21 11:07:24,065 - INFO -     (extra): Sequential(
2026-04-21 11:07:24,065 - INFO -       (0): _LidarSpatialResidualBlock(
2026-04-21 11:07:24,065 - INFO -         (conv1): Conv2d(96, 96, kernel_size=(3, 3), stride=(1, 1), padding=(1, 1), bias=False)
2026-04-21 11:07:24,066 - INFO -         (bn1): BatchNorm2d(96, eps=1e-05, momentum=0.1, affine=True, track_running_stats=True)
2026-04-21 11:07:24,066 - INFO -         (conv2): Conv2d(96, 96, kernel_size=(3, 3), stride=(1, 1), padding=(1, 1), bias=False)
2026-04-21 11:07:24,066 - INFO -         (bn2): BatchNorm2d(96, eps=1e-05, momentum=0.1, affine=True, track_running_stats=True)
2026-04-21 11:07:24,066 - INFO -         (relu): ReLU(inplace=True)
2026-04-21 11:07:24,066 - INFO -       )
2026-04-21 11:07:24,066 - INFO -       (1): _LidarSpatialResidualBlock(
2026-04-21 11:07:24,066 - INFO -         (conv1): Conv2d(96, 96, kernel_size=(3, 3), stride=(1, 1), padding=(1, 1), bias=False)
2026-04-21 11:07:24,066 - INFO -         (bn1): BatchNorm2d(96, eps=1e-05, momentum=0.1, affine=True, track_running_stats=True)
2026-04-21 11:07:24,066 - INFO -         (conv2): Conv2d(96, 96, kernel_size=(3, 3), stride=(1, 1), padding=(1, 1), bias=False)
2026-04-21 11:07:24,066 - INFO -         (bn2): BatchNorm2d(96, eps=1e-05, momentum=0.1, affine=True, track_running_stats=True)
2026-04-21 11:07:24,066 - INFO -         (relu): ReLU(inplace=True)
2026-04-21 11:07:24,066 - INFO -       )
2026-04-21 11:07:24,066 - INFO -     )
2026-04-21 11:07:24,066 - INFO -     (proj): Linear(in_features=96, out_features=320, bias=True)
2026-04-21 11:07:24,066 - INFO -   )
2026-04-21 11:07:24,066 - INFO -   (decoder): TransformerDecoder(
2026-04-21 11:07:24,066 - INFO -     (layers): ModuleList(
2026-04-21 11:07:24,066 - INFO -       (0): TransformerDecoderLayer(
2026-04-21 11:07:24,066 - INFO -         (self_attn): MultiheadAttention(
2026-04-21 11:07:24,066 - INFO -           (out_proj): NonDynamicallyQuantizableLinear(in_features=320, out_features=320, bias=True)
2026-04-21 11:07:24,066 - INFO -         )
2026-04-21 11:07:24,066 - INFO -         (multihead_attn): MultiheadAttention(
2026-04-21 11:07:24,066 - INFO -           (out_proj): NonDynamicallyQuantizableLinear(in_features=320, out_features=320, bias=True)
2026-04-21 11:07:24,066 - INFO -         )
2026-04-21 11:07:24,066 - INFO -         (linear1): Linear(in_features=320, out_features=384, bias=True)
2026-04-21 11:07:24,066 - INFO -         (dropout): Dropout(p=0.1, inplace=False)
2026-04-21 11:07:24,066 - INFO -         (linear2): Linear(in_features=384, out_features=320, bias=True)
2026-04-21 11:07:24,066 - INFO -         (norm1): LayerNorm((320,), eps=1e-05, elementwise_affine=True)
2026-04-21 11:07:24,066 - INFO -         (norm2): LayerNorm((320,), eps=1e-05, elementwise_affine=True)
2026-04-21 11:07:24,066 - INFO -         (norm3): LayerNorm((320,), eps=1e-05, elementwise_affine=True)
2026-04-21 11:07:24,066 - INFO -         (dropout1): Dropout(p=0.1, inplace=False)
2026-04-21 11:07:24,066 - INFO -         (dropout2): Dropout(p=0.1, inplace=False)
2026-04-21 11:07:24,066 - INFO -         (dropout3): Dropout(p=0.1, inplace=False)
2026-04-21 11:07:24,066 - INFO -       )
2026-04-21 11:07:24,066 - INFO -     )
2026-04-21 11:07:24,066 - INFO -   )
2026-04-21 11:07:24,066 - INFO -   (global_head): ClassifierHead(
2026-04-21 11:07:24,066 - INFO -     (net): Sequential(
2026-04-21 11:07:24,066 - INFO -       (0): Linear(in_features=320, out_features=320, bias=True)
2026-04-21 11:07:24,066 - INFO -       (1): ReLU(inplace=True)
2026-04-21 11:07:24,066 - INFO -       (2): Dropout(p=0.2, inplace=False)
2026-04-21 11:07:24,066 - INFO -       (3): Linear(in_features=320, out_features=320, bias=True)
2026-04-21 11:07:24,066 - INFO -       (4): ReLU(inplace=True)
2026-04-21 11:07:24,066 - INFO -       (5): Dropout(p=0.2, inplace=False)
2026-04-21 11:07:24,066 - INFO -       (6): Linear(in_features=320, out_features=20, bias=True)
2026-04-21 11:07:24,066 - INFO -     )
2026-04-21 11:07:24,066 - INFO -   )
2026-04-21 11:07:24,066 - INFO -   (center_head): ClassifierHead(
2026-04-21 11:07:24,066 - INFO -     (net): Sequential(
2026-04-21 11:07:24,066 - INFO -       (0): Linear(in_features=320, out_features=320, bias=True)
2026-04-21 11:07:24,066 - INFO -       (1): ReLU(inplace=True)
2026-04-21 11:07:24,066 - INFO -       (2): Dropout(p=0.2, inplace=False)
2026-04-21 11:07:24,066 - INFO -       (3): Linear(in_features=320, out_features=320, bias=True)
2026-04-21 11:07:24,066 - INFO -       (4): ReLU(inplace=True)
2026-04-21 11:07:24,066 - INFO -       (5): Dropout(p=0.2, inplace=False)
2026-04-21 11:07:24,066 - INFO -       (6): Linear(in_features=320, out_features=20, bias=True)
2026-04-21 11:07:24,066 - INFO -     )
2026-04-21 11:07:24,066 - INFO -   )
2026-04-21 11:07:24,066 - INFO -   (projections): ModuleDict(
2026-04-21 11:07:24,066 - INFO -     (hsi): HSICenterSpectralEncoder(
2026-04-21 11:07:24,066 - INFO -       (stem): Sequential(
2026-04-21 11:07:24,066 - INFO -         (0): Conv1d(1, 48, kernel_size=(3,), stride=(1,), padding=(1,), bias=False)
2026-04-21 11:07:24,066 - INFO -         (1): BatchNorm1d(48, eps=1e-05, momentum=0.1, affine=True, track_running_stats=True)
2026-04-21 11:07:24,066 - INFO -         (2): ReLU(inplace=True)
2026-04-21 11:07:24,066 - INFO -         (3): Conv1d(48, 96, kernel_size=(3,), stride=(1,), padding=(1,), bias=False)
2026-04-21 11:07:24,066 - INFO -         (4): BatchNorm1d(96, eps=1e-05, momentum=0.1, affine=True, track_running_stats=True)
2026-04-21 11:07:24,066 - INFO -         (5): ReLU(inplace=True)
2026-04-21 11:07:24,066 - INFO -         (6): Conv1d(96, 96, kernel_size=(3,), stride=(1,), padding=(1,), bias=False)
2026-04-21 11:07:24,066 - INFO -         (7): BatchNorm1d(96, eps=1e-05, momentum=0.1, affine=True, track_running_stats=True)
2026-04-21 11:07:24,066 - INFO -         (8): ReLU(inplace=True)
2026-04-21 11:07:24,066 - INFO -       )
2026-04-21 11:07:24,066 - INFO -       (res_blocks): Sequential(
2026-04-21 11:07:24,066 - INFO -         (0): _HSISpectralResidualBlock(
2026-04-21 11:07:24,066 - INFO -           (conv1): Conv1d(96, 96, kernel_size=(3,), stride=(1,), padding=(1,), bias=False)
2026-04-21 11:07:24,066 - INFO -           (bn1): BatchNorm1d(96, eps=1e-05, momentum=0.1, affine=True, track_running_stats=True)
2026-04-21 11:07:24,066 - INFO -           (conv2): Conv1d(96, 96, kernel_size=(3,), stride=(1,), padding=(1,), bias=False)
2026-04-21 11:07:24,066 - INFO -           (bn2): BatchNorm1d(96, eps=1e-05, momentum=0.1, affine=True, track_running_stats=True)
2026-04-21 11:07:24,066 - INFO -           (relu): ReLU(inplace=True)
2026-04-21 11:07:24,066 - INFO -         )
2026-04-21 11:07:24,066 - INFO -         (1): _HSISpectralResidualBlock(
2026-04-21 11:07:24,066 - INFO -           (conv1): Conv1d(96, 96, kernel_size=(3,), stride=(1,), padding=(1,), bias=False)
2026-04-21 11:07:24,066 - INFO -           (bn1): BatchNorm1d(96, eps=1e-05, momentum=0.1, affine=True, track_running_stats=True)
2026-04-21 11:07:24,066 - INFO -           (conv2): Conv1d(96, 96, kernel_size=(3,), stride=(1,), padding=(1,), bias=False)
2026-04-21 11:07:24,066 - INFO -           (bn2): BatchNorm1d(96, eps=1e-05, momentum=0.1, affine=True, track_running_stats=True)
2026-04-21 11:07:24,066 - INFO -           (relu): ReLU(inplace=True)
2026-04-21 11:07:24,066 - INFO -         )
2026-04-21 11:07:24,066 - INFO -         (2): _HSISpectralResidualBlock(
2026-04-21 11:07:24,066 - INFO -           (conv1): Conv1d(96, 96, kernel_size=(3,), stride=(1,), padding=(1,), bias=False)
2026-04-21 11:07:24,066 - INFO -           (bn1): BatchNorm1d(96, eps=1e-05, momentum=0.1, affine=True, track_running_stats=True)
2026-04-21 11:07:24,066 - INFO -           (conv2): Conv1d(96, 96, kernel_size=(3,), stride=(1,), padding=(1,), bias=False)
2026-04-21 11:07:24,066 - INFO -           (bn2): BatchNorm1d(96, eps=1e-05, momentum=0.1, affine=True, track_running_stats=True)
2026-04-21 11:07:24,066 - INFO -           (relu): ReLU(inplace=True)
2026-04-21 11:07:24,066 - INFO -         )
2026-04-21 11:07:24,066 - INFO -         (3): _HSISpectralResidualBlock(
2026-04-21 11:07:24,066 - INFO -           (conv1): Conv1d(96, 96, kernel_size=(3,), stride=(1,), padding=(1,), bias=False)
2026-04-21 11:07:24,066 - INFO -           (bn1): BatchNorm1d(96, eps=1e-05, momentum=0.1, affine=True, track_running_stats=True)
2026-04-21 11:07:24,066 - INFO -           (conv2): Conv1d(96, 96, kernel_size=(3,), stride=(1,), padding=(1,), bias=False)
2026-04-21 11:07:24,066 - INFO -           (bn2): BatchNorm1d(96, eps=1e-05, momentum=0.1, affine=True, track_running_stats=True)
2026-04-21 11:07:24,066 - INFO -           (relu): ReLU(inplace=True)
2026-04-21 11:07:24,066 - INFO -         )
2026-04-21 11:07:24,066 - INFO -         (4): _HSISpectralResidualBlock(
2026-04-21 11:07:24,066 - INFO -           (conv1): Conv1d(96, 96, kernel_size=(3,), stride=(1,), padding=(1,), bias=False)
2026-04-21 11:07:24,066 - INFO -           (bn1): BatchNorm1d(96, eps=1e-05, momentum=0.1, affine=True, track_running_stats=True)
2026-04-21 11:07:24,066 - INFO -           (conv2): Conv1d(96, 96, kernel_size=(3,), stride=(1,), padding=(1,), bias=False)
2026-04-21 11:07:24,066 - INFO -           (bn2): BatchNorm1d(96, eps=1e-05, momentum=0.1, affine=True, track_running_stats=True)
2026-04-21 11:07:24,066 - INFO -           (relu): ReLU(inplace=True)
2026-04-21 11:07:24,066 - INFO -         )
2026-04-21 11:07:24,066 - INFO -       )
2026-04-21 11:07:24,066 - INFO -       (pool): AdaptiveAvgPool1d(output_size=1)
2026-04-21 11:07:24,066 - INFO -       (se): Sequential(
2026-04-21 11:07:24,066 - INFO -         (0): Linear(in_features=96, out_features=8, bias=False)
2026-04-21 11:07:24,066 - INFO -         (1): ReLU(inplace=True)
2026-04-21 11:07:24,066 - INFO -         (2): Linear(in_features=8, out_features=96, bias=False)
2026-04-21 11:07:24,066 - INFO -         (3): Sigmoid()
2026-04-21 11:07:24,066 - INFO -       )
2026-04-21 11:07:24,066 - INFO -       (proj): Linear(in_features=96, out_features=320, bias=True)
2026-04-21 11:07:24,066 - INFO -     )
2026-04-21 11:07:24,066 - INFO -     (lidar): LidarMorphEncoder(
2026-04-21 11:07:24,066 - INFO -       (stem): Sequential(
2026-04-21 11:07:24,066 - INFO -         (0): Conv2d(1, 48, kernel_size=(3, 3), stride=(1, 1), padding=(1, 1), bias=False)
2026-04-21 11:07:24,066 - INFO -         (1): BatchNorm2d(48, eps=1e-05, momentum=0.1, affine=True, track_running_stats=True)
2026-04-21 11:07:24,066 - INFO -         (2): ReLU(inplace=True)
2026-04-21 11:07:24,066 - INFO -         (3): Conv2d(48, 48, kernel_size=(3, 3), stride=(1, 1), padding=(1, 1), bias=False)
2026-04-21 11:07:24,066 - INFO -         (4): BatchNorm2d(48, eps=1e-05, momentum=0.1, affine=True, track_running_stats=True)
2026-04-21 11:07:24,066 - INFO -         (5): ReLU(inplace=True)
2026-04-21 11:07:24,066 - INFO -         (6): Conv2d(48, 96, kernel_size=(3, 3), stride=(1, 1), padding=(1, 1), bias=False)
2026-04-21 11:07:24,066 - INFO -         (7): BatchNorm2d(96, eps=1e-05, momentum=0.1, affine=True, track_running_stats=True)
2026-04-21 11:07:24,066 - INFO -         (8): ReLU(inplace=True)
2026-04-21 11:07:24,067 - INFO -       )
2026-04-21 11:07:24,067 - INFO -       (extra): Sequential(
2026-04-21 11:07:24,067 - INFO -         (0): _LidarSpatialResidualBlock(
2026-04-21 11:07:24,067 - INFO -           (conv1): Conv2d(96, 96, kernel_size=(3, 3), stride=(1, 1), padding=(1, 1), bias=False)
2026-04-21 11:07:24,067 - INFO -           (bn1): BatchNorm2d(96, eps=1e-05, momentum=0.1, affine=True, track_running_stats=True)
2026-04-21 11:07:24,067 - INFO -           (conv2): Conv2d(96, 96, kernel_size=(3, 3), stride=(1, 1), padding=(1, 1), bias=False)
2026-04-21 11:07:24,067 - INFO -           (bn2): BatchNorm2d(96, eps=1e-05, momentum=0.1, affine=True, track_running_stats=True)
2026-04-21 11:07:24,067 - INFO -           (relu): ReLU(inplace=True)
2026-04-21 11:07:24,067 - INFO -         )
2026-04-21 11:07:24,067 - INFO -         (1): _LidarSpatialResidualBlock(
2026-04-21 11:07:24,067 - INFO -           (conv1): Conv2d(96, 96, kernel_size=(3, 3), stride=(1, 1), padding=(1, 1), bias=False)
2026-04-21 11:07:24,067 - INFO -           (bn1): BatchNorm2d(96, eps=1e-05, momentum=0.1, affine=True, track_running_stats=True)
2026-04-21 11:07:24,067 - INFO -           (conv2): Conv2d(96, 96, kernel_size=(3, 3), stride=(1, 1), padding=(1, 1), bias=False)
2026-04-21 11:07:24,067 - INFO -           (bn2): BatchNorm2d(96, eps=1e-05, momentum=0.1, affine=True, track_running_stats=True)
2026-04-21 11:07:24,067 - INFO -           (relu): ReLU(inplace=True)
2026-04-21 11:07:24,067 - INFO -         )
2026-04-21 11:07:24,067 - INFO -       )
2026-04-21 11:07:24,067 - INFO -       (proj): Linear(in_features=96, out_features=320, bias=True)
2026-04-21 11:07:24,067 - INFO -     )
2026-04-21 11:07:24,067 - INFO -     (rgb): LightweightRgbEncoder(
2026-04-21 11:07:24,067 - INFO -       (stem): Sequential(
2026-04-21 11:07:24,067 - INFO -         (0): Conv2d(3, 64, kernel_size=(3, 3), stride=(1, 1), padding=(1, 1), bias=False)
2026-04-21 11:07:24,067 - INFO -         (1): BatchNorm2d(64, eps=1e-05, momentum=0.1, affine=True, track_running_stats=True)
2026-04-21 11:07:24,067 - INFO -         (2): ReLU(inplace=True)
2026-04-21 11:07:24,067 - INFO -         (3): Conv2d(64, 128, kernel_size=(3, 3), stride=(1, 1), padding=(1, 1), bias=False)
2026-04-21 11:07:24,067 - INFO -         (4): BatchNorm2d(128, eps=1e-05, momentum=0.1, affine=True, track_running_stats=True)
2026-04-21 11:07:24,067 - INFO -         (5): ReLU(inplace=True)
2026-04-21 11:07:24,067 - INFO -       )
2026-04-21 11:07:24,067 - INFO -       (pool): AdaptiveAvgPool2d(output_size=1)
2026-04-21 11:07:24,067 - INFO -       (fc): Linear(in_features=128, out_features=320, bias=True)
2026-04-21 11:07:24,067 - INFO -     )
2026-04-21 11:07:24,067 - INFO -   )
2026-04-21 11:07:24,067 - INFO -   (loss_func): CrossEntropyLoss()
2026-04-21 11:07:24,067 - INFO - )
2026-04-21 11:07:24,067 - INFO - classifier layout | d_model=320 mem_len=3 seq_len=5 num_classes=20 arch_variant=-
2026-04-21 11:07:24,067 - INFO - ========== Training / opt ==========
…
